data.pth (torch, 6271 bytes, 6 tensors)

l1.weight f4 [8, 72]
00000000: 97c1 1e3e 4ce9 06bf e953 8bbe 2e56 f2be
00000010: 1d63 7bbd d155 993e 1f3c d03e 2008 913f
00000020: ea6e 1dbe 603c b03e 7a5d 2c3f b3ee ddbe
00000030: 41c1 653d 6891 f23e 9d2a 0e3e 728f 1c3f
00000040: 93b9 f4be d153 fc3c 803f c53e 9f00 9e3e
00000050: b8ac 33bc 4b51 7fbe 973d 0d3f 8743 debe
00000060: 8505 473e fc70 973c 4eba f53d 96b3 1d3f
00000070: e9e2 03bf 07f0 203f c91a 293f e50f 8dbd
00000080: ecb8 d4bd aba9 683e d328 3d3e cf46 4c3f
00000090: e03e 123f e169 9a3d 96c5 863e 9143 ed3d
000000a0: b114 f7be 43b9 123f 969d 29be 1fc6 ffbe
000000b0: 41e4 27be eb3f d93e 1027 9abe d72b a03e
000000c0: 84ee d7be fd48 cebe cc48 543f 5e44 fabe
000000d0: 1a28 263f bca3 e8bd 1f75 953e e32d 963d
000000e0: 2b82 e73e a3bb 813f 51a7 a43f eeeb 71bf
000000f0: 99d8 c73d e515 c43e 4338 b13e 7b6a ee3e
00000100: 9b14 1b3f 1d09 2ebe c9c9 8b3e 1128 0d3f
00000110: e26e 98bd 167e 39bd 470e 773e 354f 453d
00000120: 6ca3 1e3d 1d0d e23e 8510 58be 1c7d 09be
00000130: 81ea 503e 771d 8dbd ca8a 7d3e a434 dc3e
00000140: 5a20 53bd d99c 503c 8472 553e 8893 61be
00000150: 5e40 3cbf 403d 9c3d 2406 3abb 091d abbe
00000160: 1f06 fb3c 5301 cd3b 8954 2cbe a572 55bf
00000170: 2fc7 dd3d 337c 523e a5d9 423e f4fe 1bbe
00000180: ee73 4fbf d667 33bf c011 d2bd 6e2c 4f3f
00000190: 005d dd3e bbcd 4f3f c462 503f c0f1 3a3e
000001a0: ddfc 843e f4b0 493c 95cc 863d 0a05 10bf
000001b0: 3014 9ebc dda6 253c 30c7 adbe 42bb aa3e
000001c0: 3a56 ccbd 7838 193e 4b0f 323e f237 c43d
000001d0: 2459 9b3c 1371 59bd b209 b93d 8436 9d3e
000001e0: b2f7 76be 342f 44be fe2e 66bf db2d 6fbb
000001f0: f555 02bf 73ef b9bb 64c7 bfbc 4ece 09bf
00000200: 5e36 e5bc 5346 02bf b032 e03e 6c69 503f
00000210: e645 a83e d8b6 03be 4edc e0bd ec69 7abe
00000220: 314d efbe bbb1 653e 6df1 cfbc 794e 903d
00000230: a48f 41bd 33ae 9b3d 434b 8c3e 1964 dc3e
00000240: 062f 673e 74be 403e 7669 55be db3d 28be
00000250: cff8 893d df97 e8bd 1ba9 8e3d 9680 983e
00000260: aa75 b13e 9e00 3c3e b042 143e aa3c ecbc
00000270: 9986 183e 1e3a 8a3d 2f2e e53d 225f 143f
00000280: bf0c d1be b29e 343e 3447 6abe ddb4 743f
00000290: 9b46 98bd 576b 963c feaa f33d ba80 54be
000002a0: cb19 933f 6694 1bbd ee98 b43d 0c51 acbe
000002b0: d735 243e 51f9 afbe fc5d 8fbe ee5e dcbd
000002c0: e2fb f0bd 7e07 a33d c74a 8a3d abee a1be
000002d0: 8343 1a3f bb57 a4be 76e7 3e3e a3dd d2bd
000002e0: 7ba4 86be d05d a83d a730 e9bd 7e67 81be
000002f0: 9461 913c 484b 963e 9671 e73c ce41 513f
00000300: ac31 20be 0083 22bd 5e06 653f 2f7d 9abe
00000310: 01de 6c3f dfed 1e3e bf9a a43e 8f57 d13d
00000320: 0271 aebe b16e b5be bc83 893e 294d 843e
00000330: 8e7d c73d eb40 be3e e967 8f3e 3acb 073f
00000340: a027 043f 8ca4 79bd b2a7 743e 1500 9b3e
00000350: a7ca 6a3e 10f4 863b c912 4d3f 51b3 9c3e
00000360: 247c 25bb 850a 1e3f a6b3 093f b092 1c3f
00000370: 1a0f a03e 2b98 003f 8ff8 8bbe 6599 e4be
00000380: 5ae6 703e 44ff bc3e b5a3 ecbe c101 2d3f
00000390: 5d1c 43bf baa4 e73e 1524 4bbe 21bf 11bf
000003a0: 79ac 503f 72b8 4a3f c68a c83e e4bb 45bf
000003b0: e0c1 a73e 021c be3e 2501 e4be ab81 433f
000003c0: 1e6c 91be 1cc0 43bf f020 3abe d581 d8bd
000003d0: bb08 003f 5c1f ecbd bae5 c5bd dc3a 273f
000003e0: ddc7 163f 452b 6cbd 2a4d 963d 3dbb 123f
000003f0: ba2a 883e 9702 1e3f 38c4 0bbf 1c16 573e
0.15503536 -0.5269973 -0.27212456 -0.47331375 -0.06137382 0.29948285 0.4067087 1.1330605
-0.15374342 0.34421062 0.67330134 -0.43346176 0.056092504 0.4737656 0.13883443 0.6115638
-0.47797832 0.030801686 0.3852501 0.3085985 -0.010966472 -0.24933355 0.55172104 -0.43410894
0.194357 0.018486492 0.119984254 0.6160215 -0.5151811 0.6286625 0.66056496 -0.06887797
-0.103868335 0.22720973 0.18472604 0.79795545 0.5712719 0.07539726 0.2632262 0.11585153
-0.48257974 0.57313937 -0.1656402 -0.49955842 -0.16395666 0.42431578 -0.30107927 0.31283447
-0.4217416 -0.4029006 0.8292358 -0.48880285 0.6490494 -0.11359355 0.2919092 0.07332971
0.45216498 1.0135387 1.2863561 -0.94500625 0.097581096 0.38297954 0.34613237 0.46565613
0.60578316 -0.16995664 0.27302387 0.5513926 -0.07443024 -0.04528626 0.2412654 0.04817124
0.03873007 0.4415063 -0.21100052 -0.13426632 0.20401956 -0.068903856 0.24759975 0.43008912
-0.051544525 0.012732708 0.20844465 -0.22028935 -0.73535717 0.0762887 -0.0028385008 -0.3342059
0.030642567 0.0062562614 -0.16829123 -0.8337806 0.10829007 0.2055519 0.19028337 -0.15233976
-0.8103627 -0.70080316 -0.10257292 0.8092717 0.43235016 0.81173295 0.81400704 0.18256283
0.2597417 0.012310255 0.0658199 -0.5625769 -0.019296736 0.010110584 -0.3394103 0.3334599
-0.09977384 0.14962947 0.17388646 0.09580983 0.018963404 -0.05308635 0.09035052 0.30705655
-0.24117926 -0.19158632 -0.89915454 -0.0036495838 -0.5091241 -0.0056742965 -0.023410507 -0.5383042
-0.027980026 -0.50888556 0.43788671 0.8141086 0.32865828 -0.12862718 -0.1097952 -0.24454468
-0.4673858 0.2243108 -0.025383675 0.070462175 -0.047256127 0.07601585 0.2740117 0.43045118
0.22576532 0.18822652 -0.20841011 -0.16429846 0.067369096 -0.11357092 0.06965848 0.29785603
0.34660083 0.1835961 0.14478564 -0.02883752 0.14895095 0.06749366 0.111904494 0.5795766
-0.40830037 0.17638662 -0.22878724 0.95588475 -0.07435342 0.01836173 0.118978485 -0.2075223
1.1492246 -0.03798332 0.088182315 -0.33655584 0.16036163 -0.343699 -0.28001392 -0.10760294
-0.11766793 0.079604134 0.06752544 -0.31627402 0.60259265 -0.32098183 0.18642983 -0.1029618
-0.26297364 0.08221018 -0.11386233 -0.2527427 0.017746724 0.2935431 0.028252404 0.81741035
-0.15643948 -0.039675713 0.8946284 -0.30173633 0.9252625 0.15520428 0.32149312 0.102217786
-0.34070593 -0.35436013 0.26858318 0.2584012 0.097407445 0.37158903 0.28008965 0.53044474
0.5162296 -0.06094794 0.23892096 0.302735 0.22928868 0.00411845 0.8010679 0.30605558
-0.0025250996 0.617348 0.53789747 0.6116133 0.31261522 0.5023219 -0.27338073 -0.4464828
0.23525372 0.36913502 -0.4621865 0.675808 -0.76215154 0.45242864 -0.19837983 -0.56932265
0.8151317 0.7918769 0.39168376 -0.77239823 0.32765102 0.37130743 -0.44532123 0.7636973
-0.284028 -0.7646501 -0.18176627 -0.105716385 0.5001332 -0.11529419 -0.096629575 0.6532419
0.5889872 -0.057658453 0.073389366 0.5731695 0.26595098 0.617227 -0.5459628 0.21004528

l1.bias f4 [8]
00000000: 04d7 713f 6f26 893f 46dc 403f 07f3 433f
00000010: fc68 a33f f075 573f 3da1 8f3f 987f 233f
0.9446871 1.0714854 0.7533611 0.76542705 1.2766414 0.84164333 1.1221081 0.6386657

l2.weight f4 [8, 8]
00000000: dee0 173f cbb6 e83f a14c bc3e 42c8 39be
00000010: 966b c33f 600d 823f 2f15 c43f 94ba cabd
00000020: 6010 943c e0c0 53bc 18c2 2fbd 8899 22be
00000030: 2870 1a3d 4f05 5cbe 0069 edbc 1809 76be
00000040: 631c a4bf 1f44 bc3f 7db8 10bf 4ada da3f
00000050: ac1b ebbe 1d98 633f 990c 6c3f edce 653f
00000060: 7b85 943e 81f6 41bd 1de4 a23f 925f 1a3e
00000070: 0ffa 8fbf b3d5 5b3f 6415 41bf b235 003e
00000080: 7a0f 12bf 2cc1 d93f b1eb 673f 2186 453f
00000090: e877 3cbf 2d4a dbbe 01b4 2c3e bcd5 aa3f
000000a0: ac6f a53f a162 aa3f 4578 6d3d b2ec 3dbe
000000b0: a007 133e 20cf c43f e577 9abf f365 0abf
000000c0: 465a 533f d6ec b5bf 5e69 9e3f 1bdf 183e
000000d0: 9561 88bf 7b11 ec3d 1716 323e 7155 513f
000000e0: 9c7f a43e b13a 2cbf eb57 30bc 6bda a43f
000000f0: 50a8 a13e c7a3 573f 8e80 a6bf a6d8 e8be
0.59327495 1.8180784 0.36777213 -0.18142799 1.5267208 1.0160332 1.5318965 -0.09898868
0.018074214 -0.012924403 -0.04290971 -0.1587888 0.037704617 -0.214864 -0.028980732 -0.24026906
-1.2821163 1.4708289 -0.56531507 1.7097867 -0.4591955 0.8890398 0.9220672 0.8976887
0.29008088 -0.047354225 1.2725865 0.1507552 -1.1248187 0.85872954 -0.75423265 0.12520483
-0.57054865 1.7012076 0.9059401 0.7715779 -0.7362046 -0.4283003 0.16865541 1.3346477
1.2924705 1.3311349 0.057976026 -0.18547323 0.14358377 1.537571 -1.2067839 -0.5406181
0.8255962 -1.4212902 1.2375906 0.14928858 -1.065478 0.11526772 0.17391239 0.81771
0.32128608 -0.67277056 -0.010763149 1.2879156 0.31573725 0.8423428 -1.3007982 -0.4547779

l2.bias f4 [8]
00000000: 8923 523f 5031 92be f142 e33e 2f48 a03d
00000010: f8ef 413e 0e93 a93e 9753 1cbe f45c c83e
0.8208547 -0.28553247 0.4438701 0.07826268 0.18939197 0.33120006 -0.15266262 0.39133418

l3.weight f4 [13, 8]
00000000: df3c 5cbf 90a8 db3d 73e5 d03e a79d c5be
00000010: 9dbb 323f 20b5 a0bf fe5c cf3d bdf9 95bf
00000020: 18e8 1cbf b8ec 02bd ee6f a0be 5bcb ef3e
00000030: 2bbd b73e 27e4 99bf f4c5 023f 7001 81bf
00000040: d4cd 77bf 1837 97bd b95e 8ebd 4b69 983e
00000050: febc 97bd da26 3abe d33f c73e 0e91 503e
00000060: 22c2 e6be 1e2f acbe f8f5 5f3e 44a7 933e
00000070: 7eb1 7cbe 2705 44bd f926 42bf a583 153f
00000080: 265f 2ebf 79b4 aa3e 72d3 223f 9f5d 39bf
00000090: 47d6 923d 0f90 87bf aacf 88bf 007f 5a3f
000000a0: 146d e2bf b0a8 6ebd 7f62 f83e 926d 05bc
000000b0: cea3 2e3e 1d46 3cbf bd1d 4c3d ed7e d83e
000000c0: b373 883e 9a1c 9ebe 28d8 a0bf 4be9 41bf
000000d0: b88e d3bf 1459 063f 6c3a 4dbf 325a 21bf
000000e0: 48eb 21bf ca02 62be b9c9 66bf 8370 083f
000000f0: 3d61 a0bf cb84 f03e 707d 803e 795f 58bb
00000100: 1b86 483f e0a9 68bc 55bc 20be d8ac 09bf
00000110: 6858 f4bf c4b1 d7bf 2e42 3dbf cc00 3dbf
00000120: f454 f7bc e31b ae3e 1b50 f03e bdcb 58bf
00000130: 68b8 dabe 4edd 943e 9410 b3bf 4265 b5bf
00000140: 1722 20be 650b 86be cd05 8bbf 6a64 74bf
00000150: 4f1b 62bf aa7e b33e 0ea1 7dbf 8665 8f3f
00000160: 7694 8b3e f424 91be d1c3 563f c685 24bf
00000170: f14c b5bf ced5 cebf d96e e8be f164 a7bd
00000180: 151a 25be c77d 28be 047f 243f 97d7 6fbf
00000190: 3e49 0f3f a74a d6bf de50 cbbf 4051 a5bf
-0.8603038 0.1072551 0.40800056 -0.38596842 0.69817525 -1.2555275 0.10125159 -1.1716839
-0.61291647 -0.031964034 -0.31335396 0.46834835 0.3588651 -1.2022752 0.510833 -1.0078564
-0.96798444 -0.07383555 -0.06951661 0.29767832 -0.07409094 -0.18178883 0.38915882 0.20367834
-0.45069987 -0.33629698 0.21871173 0.2883855 -0.24677083 -0.047856476 -0.7584072 0.58404
-0.68113935 0.33340815 0.6360389 -0.7240848 0.071697764 -1.0590838 -1.0688374 0.85350037
-1.7689538 -0.05826634 0.48512647 -0.008143799 0.17054674 -0.73544484 0.049833048 0.42284337
0.26650771 -0.30881196 -1.2565966 -0.757466 -1.6527929 0.5247967 -0.8016727 -0.6302825
-0.63249636 -0.22071376 -0.90151554 0.5329668 -1.2529675 0.46976313 0.250957 -0.003301589
0.7832963 -0.014200658 -0.15696843 -0.53779364 -1.908948 -1.6851125 -0.7392911 -0.7382934
-0.030191876 0.3400565 0.46936116 -0.8468588 -0.42718816 0.29075092 -1.3989434 -1.4171526
-0.15638004 -0.26180568 -1.0861145 -0.9546572 -0.8832292 0.35057575 -0.99073875 1.1202857
0.27261704 -0.28348505 0.8389254 -0.6426662 -1.4164106 -1.6158998 -0.4539707 -0.0817355
-0.16123231 -0.1645423 0.6425631 -0.9368834 0.55971134 -1.6741532 -1.5884054 -1.291542

l3.bias f4 [13]
00000000: 879a c4be 63c1 45bc cae5 b5be bba1 a1be
00000010: ec70 a53d 67b4 b9be 2684 b3be d9fa ae3d
00000020: 7b3f 853f 293d 9c3e 91ff 783e 92f1 04bf
00000030: 7cd8 09be
-0.38399145 -0.012070033 -0.35526878 -0.31568703 0.08078179 -0.3627045 -0.3506176 0.08543939
1.0409998 0.30515411 0.24316241 -0.5193111 -0.13461488
